AI/last.tflite (tflite, 323380 bytes, 7 tensors)

sequential/dense/BiasAdd/ReadVariableOp f4 [32]
000000 52 66 89 3c 51 be c1 3c 24 4b 83 3e 76 85 51 3d
       0.016772423 0.02365032 0.25643265 0.05115267
000010 a6 1e a7 3e 85 04 54 3e 0a 69 3e 3d cf 94 1e 3e
       0.3264057 0.20704849 0.04648689 0.15486453
000020 72 d6 3c 3e b4 57 d3 3d 86 16 12 3e 5a ad 15 3e
       0.1844118 0.103194624 0.14266405 0.1461691
000030 5b c7 22 3e 08 e0 68 bd cb 8c 77 bd c1 12 a6 bd
       0.1589636 -0.056854278 -0.060437005 -0.08109046
000040 0a ad 7b 3e 8f 04 d1 3b fc f8 0b 3a f3 fb 01 bd
       0.24577728 0.0063787173 0.0005339531 -0.031734418
000050 b2 f6 f4 3d 53 13 bd 3e 66 98 cc 3d a8 f6 2c 3e
       0.11961116 0.36928806 0.09990005 0.16890967
000060 bf 7b ba 3e ee 80 36 be 47 cd 5f 3b bc f3 c0 bd
       0.36422536 -0.1782262 0.0034149454 -0.09421489
000070 4c 04 0a bd 16 63 7f 3e ca 21 6c 3e 3f 3b 47 3e
       -0.033695504 0.24940142 0.23059765 0.19456194

sequential/dense_1/BiasAdd/ReadVariableOp f4 [56]
000000 30 28 77 be 89 a6 a6 bb f3 c4 87 3c 5e ec 73 3e
       -0.24136424 -0.0050857705 0.016573405 0.23820636
000010 ce d2 1c 3d ba c2 e5 bd 5b 5a 92 be 99 20 2d 3e
       0.038286977 -0.11218782 -0.2858456 0.16906966
000020 1f ca c2 bd 87 2e bd bd e6 df 0b 3e 45 fe 4f 3e
       -0.09511208 -0.0923739 0.13659629 0.2031184
000030 90 11 be bd 99 07 81 bc 75 59 17 be 2a d0 5d bd
       -0.092806935 -0.015750693 -0.14780219 -0.0541536
000040 85 01 cc 3e 59 5f dd bd 1d 56 ea bd da 56 64 bd
       0.3984491 -0.10809202 -0.11442206 -0.05574689
000050 d2 cf 07 be 3c de 1b 3d 3a e9 c1 3e d5 38 30 be
       -0.13262871 0.038053736 0.3787325 -0.1720918
000060 f7 39 e2 3d 6e 96 8b 3d ff 1d 7b 3e 96 8f 89 3d
       0.11046212 0.068158016 0.24523161 0.0671684
000070 44 0d b4 3d a3 45 c7 bd 1b 65 ab bd fa b4 a6 bc
       0.08791593 -0.09730079 -0.08368894 -0.020349968
000080 26 2b 09 3d d7 7f 01 3d 57 06 a9 3d 83 30 b9 bd
       0.033488415 0.03161606 0.08253162 -0.09042456
000090 4d 98 09 bd 7b 91 60 bd 46 4e 6c 3d 37 f5 70 bd
       -0.03359251 -0.05482624 0.057691835 -0.058827605
0000a0 34 80 15 be a7 45 83 bd bc ce ac be 41 d3 85 be
       -0.14599687 -0.064097695 -0.33751476 -0.26137736
0000b0 a3 2c 40 3d 03 96 9f 3d a4 1d 48 3c bf f2 44 3d
       0.04691757 0.07792284 0.012214098 0.048083063
0000c0 79 6d 64 be ad 0e 8b 3e fb 01 90 3d f9 b9 aa bd
       -0.22307386 0.27159634 0.07031628 -0.08336253
0000d0 97 a4 85 3d 48 98 fe bd da 0c 04 be c1 5d b8 bb
       0.06525534 -0.12431389 -0.12895527 -0.0056264107

sequential/dense/MatMul f4 [32, 64]
000000 8e 71 6a be c9 9d 92 3b 1a 85 a6 3d a8 9b 9f 3d
       -0.2289488 0.004474376 0.08130856 0.07793361
000010 e8 e5 3c 3e b8 ba 1d be 7f 1b 02 3e 65 2f 50 3e
       0.18447077 -0.15403259 0.12705801 0.2033058
000020 44 74 3d 3d e4 d5 14 bf 72 d4 b9 be 6c a6 40 3e
       0.046253458 -0.5813887 -0.36294895 0.18813485
000030 e8 90 0a be 42 c2 ed 3d d9 ce 54 3e ad 7c 5d 3d
       -0.1353184 0.11609317 0.20782031 0.05407398
000040 64 f9 30 be 78 a2 3f be a2 7f 02 bd 57 3f 82 3e
       -0.17282635 -0.1871432 -0.03186 0.2543895
000050 b6 51 e2 bd 26 ae 81 3e 23 4b 1e bd 88 55 22 3e
       -0.110507414 0.25328177 -0.038645875 0.1585294
000060 50 cb 21 3e 76 8e 0c 3e 27 47 00 3d 5f d4 82 3e
       0.15800214 0.1372622 0.031317856 0.2555265
000070 23 00 2d 3e 23 1b 2f 3e aa 45 4c 3e cc e9 7e 3e
       0.16894583 0.17100196 0.1994845 0.24893874
000080 a6 e6 81 3e cf ec ab be 5e d6 42 be ed 2a 35 be
       0.25371283 -0.33579108 -0.19027087 -0.17692156
000090 af 57 6c 3e d8 13 83 be 36 f0 f1 3d 6e 6e 0a bf
       0.23080324 -0.25601077 0.11813395 -0.5407475
0000a0 59 ca 10 bf e3 5e 25 be 64 6a 0b be d1 c8 34 3b
       -0.5655876 -0.16149478 -0.13614804 0.0027585516
0000b0 c6 ef cf 3d b3 7d 95 3d 45 d4 97 3e 01 5b 6f 3e
       0.10153155 0.07299366 0.29654136 0.23374559
0000c0 b5 db f9 3d 7e d6 2b be cf 8d ff 3e 18 75 a7 3d
       0.12200109 -0.16781041 0.4991288 0.08176631
0000d0 fe 84 4a be 47 82 9a bd a9 cc 3d bc 5b 27 ee be
       -0.19777295 -0.0754438 -0.011584439 -0.465144
0000e0 02 c1 cd bd c9 22 54 3e c4 0b 12 3e a2 d9 12 be
       -0.10046579 0.20716394 0.142623 -0.14340833
0000f0 c9 5d d7 3d 6d 87 1e be 68 1b be be ec bd 6b 3d
       0.10515935 -0.15481348 -0.37130284 0.05755417
000100 94 89 03 3e 6d 71 bb be fb 2e 01 bd b3 c1 59 bd
       0.1284545 -0.36609975 -0.031538945 -0.05316324
000110 0d e9 1f 3c 0f 8d 4a bd 6a 6e d8 3e c6 9a 6e 3d
       0.0097601535 -0.04945093 0.4227174 0.058253072
000120 c2 0f 79 3e 5c fa a7 be f1 3c 9f 3e 5c 6f ea be
       0.24322417 -0.32808197 0.31101182 -0.45788085
000130 ae 59 1c 3e 13 89 d0 3b f3 7d 7b be d5 0a 16 3e
       0.15268585 0.006363997 -0.24559765 0.1465257
000140 86 7e dd 3d 8d 14 47 bd 67 5a 27 be 04 f6 af bd
       0.10815148 -0.048603583 -0.1634308 -0.08591846
000150 3b 9e 83 3c d8 51 83 bc 66 e5 51 be 8d 55 49 3c
       0.016066661 -0.016030237 -0.20497665 0.012288463
000160 64 44 98 be 5b 5f 8d bd c4 7e 83 be 71 34 f3 3d
       -0.29739678 -0.06902953 -0.25682652 0.11875237
000170 48 91 e3 3d 80 10 8a be d2 5b b0 3e e1 af a1 be
       0.111116946 -0.26965714 0.34445053 -0.31579497
000180 c8 41 9a bc 0f 5b 63 be 76 0f 58 3e 7a b9 32 be
       -0.018830195 -0.22202705 0.21099648 -0.17453566
000190 cb b3 c2 3d 3a 98 02 be 1e 43 5f 3d c4 dc ab be
       0.09506949 -0.12753382 0.054507367 -0.33566868
0001a0 9a b3 a3 3d d0 8c 9a bd 6f 23 30 3d 65 a8 dc 3d
       0.07993241 -0.07546389 0.043002542 0.10774306
0001b0 64 5f 38 be 69 d4 8c 3d 11 91 63 3e b7 53 45 be
       -0.18005139 0.068764515 0.22223307 -0.19270216
0001c0 ba 61 30 3e 23 ed 2e 3d 1b f0 54 3d 72 a8 e2 be
       0.1722478 0.04270662 0.051986795 -0.4426914
0001d0 b5 f9 64 3e 00 6d 64 3e b2 ed a3 3d 4f ac 22 be
       0.2236088 0.22307205 0.08004321 -0.15886043
0001e0 cf 9c e8 3d 92 f6 67 3d ad ae 90 3d 16 72 ce bd
       0.11358034 0.056631632 0.07064567 -0.10080354
0001f0 db 8f 2d bd 43 f0 29 3e 12 fb a6 bc a4 49 8f bd
       -0.04237352 0.16595559 -0.020383392 -0.06996468
000200 90 6d b1 be a9 43 62 3e e3 93 df 3c b7 aa 65 be
       -0.34653902 0.22096123 0.027292198 -0.22428404
000210 64 2b 90 3e ab 29 03 3d 69 d0 06 3d 0f bf c4 bd
       0.28158104 0.03202216 0.0329136 -0.09606754
000220 b8 f6 09 3e a8 dd 14 3d d0 6f ee be 8c 64 25 3d
       0.13473022 0.0363442 -0.4656968 0.040379092
000230 a9 64 46 3e 3f 91 63 3e 21 9f a4 3e 05 32 03 be
       0.19374336 0.22223376 0.32152656 -0.1281205
000240 9f 6f 06 3e 82 cb 06 bd 69 9e 12 be 18 73 ef be
       0.13128518 -0.032908924 -0.14318241 -0.46767497
000250 68 61 ae be 56 98 92 3e 75 81 27 be 94 ff 7a be
       -0.3405869 0.28631848 -0.16357978 -0.24511558
000260 82 34 b1 3e 23 b9 69 bd c2 35 d7 bc 83 ef de 3c
       0.34610373 -0.057061326 -0.02627075 0.027213817
000270 6d f2 a6 3e 66 b2 92 3d 95 27 80 3e 7e 37 81 3d
       0.3260683 0.07162933 0.250302 0.063094124
000280 83 6a 66 3e 12 10 8f be 7b fc d6 3e f1 72 0b 3f
       0.22501568 -0.27941948 0.41989502 0.5447226
000290 94 f8 a1 bc 77 61 d1 be 3f c8 29 be cc c2 47 be
       -0.019771852 -0.40894672 -0.16580294 -0.19507903
0002a0 ba a5 6a be f8 50 29 3d 65 ea c4 3d 14 12 79 be
       -0.22914782 0.041336983 0.0961502 -0.24323303
0002b0 93 dc ce bd 94 78 8d bd 4b 6a 49 3d 71 99 6b 3d
       -0.10100665 -0.06907764 0.049173634 0.05751938
0002c0 3b ac b8 3d c0 d2 24 bd 14 ab 76 3e 7f 91 2a bd
       0.09017225 -0.04024005 0.24088699 -0.041642662
0002d0 67 56 d8 bc 70 d5 ae 3d 3f 23 2e 3e 64 8c bb 3d
       -0.026408387 0.08536804 0.17005633 0.09157637
0002e0 ca d2 7d 3b 41 72 4a 3e e9 58 f2 bc 21 ac 30 3e
       0.0038730376 0.19770147 -0.029583411 0.17253162
0002f0 fa d5 2c 3e 8e ea 95 3e b5 6d 28 3e 88 43 81 3e
       0.168785 0.29280514 0.164481 0.25246835
000300 a3 a7 07 3e 1c 1c 8a be 45 d8 32 be 56 c8 c7 bd
       0.13247542 -0.2697457 -0.17465313 -0.09755008
000310 4f eb 8e be 30 bf f0 3d 40 45 60 be ef e5 e8 3d
       -0.279139 0.11755216 -0.21901417 0.11371981
000320 1f 6a 07 be 26 fb 78 bd e7 77 b0 be 9a 32 9f 3e
       -0.13224076 -0.06078639 -0.34466478 0.31093293
000330 14 d1 8d be 02 a1 13 3e 0a 08 4e 3e 77 f8 55 3e
       -0.27698576 0.14416888 0.20120254 0.20895563
000340 dd 32 4d be e2 3b 06 3d f1 81 69 bd 14 ae 30 3e
       -0.20038934 0.032771952 -0.057008687 0.17253906
000350 9e 92 a1 3e cc 3c c5 3d f6 74 69 be 4b 3d 5d 3e
       0.31557173 0.09630737 -0.22798523 0.21605413
000360 fb a5 88 3e 83 75 81 3d 78 e4 0f 3e 23 ce 01 be
       0.26689133 0.06321242 0.14051998 -0.12676291
000370 cd 6d a9 3e 85 ab 95 bd b9 f4 d8 bc 9d 1e b4 3e
       0.33091584 -0.073081054 -0.02648388 0.35179606
000380 17 03 29 3e 35 9f b9 bd c3 70 5f be f7 87 7d 3e
       0.16505085 -0.090635695 -0.21820359 0.24758898
000390 80 02 0d be 65 cd 07 3e 1f 89 a9 3e 77 75 fd bd
       -0.13770485 0.13261946 0.33112428 -0.1237592
0003a0 5f 80 9a be 85 1c 3d bd 98 42 76 be dd 6c b9 be
       -0.30176064 -0.046169776 -0.24048841 -0.3621587
0003b0 f3 d9 43 3d 7f 8d ed be 1d e6 0c 3f 27 3c a7 3d
       0.047815274 -0.46397015 0.55038625 0.0816577
0003c0 28 db 96 be 2e 1d 94 3d 4e ae 91 be 98 80 80 3d
       -0.29464078 0.07232128 -0.28453296 0.06274527
0003d0 bf 1d 58 3d 40 d3 58 be 0c 5b cd bd 9f a8 36 be
       0.052762743 -0.21174335 -0.100271314 -0.17837761
0003e0 14 6e cb bd 15 92 f8 bd b6 a3 70 be b7 db 85 be
       -0.09933105 -0.12137238 -0.23499951 -0.26144192
0003f0 07 b6 39 3d f1 26 ac 3a af d4 e1 bd 4d ed 33 3e
       0.04533961 0.0013134164 -0.11026894 0.17570992

sequential/dense_1/MatMul f4 [56, 32]
000000 2e e8 f9 3d ff 48 a9 bd 6e f5 f8 3d 20 e8 15 bf
       0.12202488 -0.08265876 0.12156187 -0.5855732
000010 f3 f0 3b 3c 0a 33 31 be aa fe c5 3c 70 6c f5 bd
       0.011471021 -0.17304626 0.024169285 -0.119835734
000020 4f 7f 06 bf e0 46 dc 3d 73 55 42 3e f4 1d 38 be
       -0.5253801 0.10755706 0.18977909 -0.17980176
000030 6e 29 c8 bd 99 88 2d bf 3c d4 3e be 34 a7 8c be
       -0.09773527 -0.67786556 -0.18635648 -0.27471316
000040 ba a3 43 bf 0b 62 29 3e 20 14 00 3e a9 d4 9f 3d
       -0.764217 0.16541307 0.12507677 0.078042336
000050 77 c7 03 bf 56 4a a1 3e d5 61 0a be 55 93 cb be
       -0.51476234 0.31502026 -0.13513882 -0.39760843
000060 92 55 2d be 92 87 f8 bd 08 de 37 3d c8 ed 98 3e
       -0.16927174 -0.12135233 0.04488948 0.29868913
000070 cd 29 3b 3e d8 56 df be 4f 85 15 bf e1 0e 67 3d
       0.18277664 -0.43620944 -0.5840654 0.056410674
000080 62 d3 34 bf ba 2a 9b 3e 71 b7 c9 be 34 bb 43 bf
       -0.70635045 0.30306035 -0.39397767 -0.76457524
000090 70 ba 43 3e 98 11 4d 3d 4c c3 3f be 82 ed 35 bf
       0.19114089 0.050065607 -0.18726844 -0.71065533
0000a0 12 aa 6a 3e d1 99 ab 3c 9e 86 d7 3d 86 13 6c be
       0.22916439 0.020947369 0.10523723 -0.23054323
0000b0 c2 18 95 be b4 e3 82 be 73 fd 28 3e 22 2d 1e bf
       -0.2912045 -0.2556435 0.16502933 -0.6178762
0000c0 21 25 0c bf 9d 70 94 3e bc d8 36 3d a6 c9 ae be
       -0.54744154 0.28992167 0.044640288 -0.3413822
0000d0 8a 05 09 be 94 f2 2c 3e a0 ba 0e bf 1f c7 82 3e
       -0.13381019 0.16889411 -0.5575352 0.25542542
0000e0 e7 d4 66 3e b2 ab 20 3d 1b 5e 05 bf 2f d3 3e bf
       0.22542153 0.03922624 -0.5209672 -0.7454099
0000f0 65 11 02 bf 07 fe e8 be 94 b2 8f be 33 1a 6b be
       -0.5080779 -0.45506307 -0.28065932 -0.22959213
000100 a2 87 db bd 7d de 04 3d 20 e8 c2 be ab be 1e bf
       -0.10719229 0.032438744 -0.38067722 -0.62009686
000110 7b dd 94 bd a7 10 2c 3e 71 8d 67 be e6 9e cc bd
       -0.072688065 0.16803227 -0.2261255 -0.09991245
000120 51 50 81 bd b2 e6 c4 3d 2d d8 e0 3c 5e 0a e4 be
       -0.06314147 0.09614314 0.02744683 -0.4453916
000130 88 6b 91 be d3 7f d1 3e 25 07 1b 3e 09 37 0d bf
       -0.28402352 0.40917835 0.15139444 -0.551621
000140 85 de 6d be 74 6f 9f 3e ff 70 2d bd c6 7a 8e bd
       -0.23229416 0.3113972 -0.04234409 -0.06957011
000150 11 03 a8 3d 5a e1 09 bf 0a 15 19 bf cc ea 25 3d
       0.0820371 -0.53859484 -0.5979773 0.040507123
000160 2e ad df 3d d1 41 4d 3e 1b 88 84 be 8b 75 94 be
       0.10921703 0.20044638 -0.2588509 -0.28995928
000170 a0 32 d2 be 16 9e 05 3e 85 ce 1a 3e ed a5 5f 3e
       -0.4105425 0.13048586 0.15117843 0.2184064
000180 cf b1 11 bf 99 13 a7 be 0e e2 ed be aa c1 2c 3e
       -0.5691194 -0.3263214 -0.4646153 0.16870752
000190 53 58 a9 3d 28 5a 03 bf 9a 2a ee 3e a1 15 31 bf
       0.082688 -0.5130944 0.46516877 -0.6917363
0001a0 a9 dd 2c bc 0f 41 1c bf e5 3d 88 be 34 55 77 3e
       -0.010550895 -0.6103677 -0.26609722 0.24153596
0001b0 d5 bf cc bd 28 32 9d be f3 ed 55 be 3e ee 02 3e
       -0.099975266 -0.3070233 -0.20891552 0.12786195
0001c0 3b 6a 29 3e 5d 19 a3 3d 99 80 74 3d 6b 20 73 3e
       0.1654443 0.07963822 0.059692953 0.23742835
0001d0 ea ca cb bd 4b 10 1b bf 0d 53 4c bf 75 7d 83 bf
       -0.09950812 -0.60571736 -0.79814225 -1.0272661
0001e0 aa f7 67 be a2 c8 9b bd 94 72 50 be 53 00 bb bc
       -0.2265307 -0.07606627 -0.20356208 -0.022827303
0001f0 bc 82 75 bf 0d cb 73 bf 68 49 e3 be 1a 7f 81 3d
       -0.9590261 -0.95231706 -0.44391942 0.06323071
000200 d6 13 b9 be ba da b9 be ea a2 0b bf b4 cd 6c be
       -0.36147946 -0.36299688 -0.5454546 -0.23125345
000210 af 69 b6 3e d1 c9 b8 be 8b a2 cc 3d a5 e0 a9 be
       0.35627505 -0.36091474 0.0999194 -0.33179203
000220 d4 77 03 be a1 fb c3 3c dc 89 30 3e 60 45 6a 3e
       -0.1283868 0.023923697 0.17240089 0.22878027
000230 96 d0 16 bd 7c 44 e0 bd 41 c3 17 bf 4c 84 c6 3e
       -0.036820017 -0.10950562 -0.5928231 0.3877281
000240 ee f0 b2 bc 39 af 99 bd 1b 6d c0 3d dc 17 9e 3e
       -0.0218434 -0.07504124 0.0939581 0.30877578
000250 94 ce 5a bf 6d 46 af be 2c 7e 98 bf 0e 4f 56 be
       -0.85471463 -0.34233418 -1.1913505 -0.20928594
000260 24 44 5a 3d cf 1b 7b 3d 49 8b b3 bd 74 64 66 be
       0.05328764 0.061305817 -0.08766801 -0.22499257
000270 67 d9 10 bf 54 e4 81 be 3c 42 69 bc 6a 2d bc bd
       -0.5658173 -0.25369513 -0.014236983 -0.091883495
000280 a6 c6 3e bf cf 8f 72 bd 15 fe bc be b5 fb dd bc
       -0.74521863 -0.059219178 -0.369126 -0.027097562
000290 7d 9d 72 be 03 36 6c bd 5a 2e 10 3e 0d 98 9d 3e
       -0.2369289 -0.057668697 0.14080182 0.30780068
0002a0 9a c0 22 bf 41 8a 11 be 39 08 0e bf fe fb d6 bb
       -0.63575137 -0.14212896 -0.55481297 -0.0065608015
0002b0 db 6e 52 bf 5e b4 77 be b2 31 69 bf dc 74 85 3e
       -0.822004 -0.24189898 -0.91091454 0.2606572
0002c0 9e 21 38 3e 3b 6a 9f 3e c6 4e 34 3e d9 f7 90 bd
       0.17981574 0.31135735 0.17608175 -0.07078523
0002d0 17 96 f5 be e2 dc 31 be 14 9f 14 bf a6 d4 30 be
       -0.47966072 -0.17369416 -0.58055234 -0.17268619
0002e0 92 1e ab be 3b 3d 3c 3d 79 03 bf bd e7 72 30 be
       -0.3342176 0.04595683 -0.09326834 -0.17231332
0002f0 85 be 00 be df 08 72 bf 49 b3 0e bf d1 87 fb bd
       -0.12572677 -0.94544786 -0.5574232 -0.12281764
000300 6f 9d 00 be 0c f9 8a 3c e7 11 b7 3d 4e fb cb be
       -0.12560056 0.016964458 0.089389615 -0.39840168
000310 a7 0b 98 3d 6a 78 43 3e bc bc 8a bd 9d 7a 7d 3e
       0.074240975 0.19088903 -0.067742795 0.24753805
000320 85 7b 82 3d 36 34 35 3e 5b 92 0b bd 20 23 cc 3d
       0.06371216 0.17695698 -0.034075122 0.09967637
000330 77 e2 32 bd 08 96 ab be 09 48 6e be 3e e3 c2 be
       -0.043673005 -0.33512902 -0.23269667 -0.38063997
000340 95 63 78 bf 92 30 01 be bf 76 82 be 21 e5 c7 bd
       -0.9702695 -0.12616184 -0.2548122 -0.097605
000350 2b 63 99 be f5 8f 64 3c e6 2b dd 3d 0f 0b 49 bf
       -0.29958472 0.013950338 0.107993886 -0.785325
000360 71 d2 09 bf f1 c5 61 3e 31 c3 1b be 27 d7 a3 3d
       -0.53836733 0.22048165 -0.15211178 0.080000214
000370 0a fc 68 3e 45 1a d1 3e 68 03 55 3d 52 04 da 3d
       0.22752395 0.40840355 0.0520052 0.10645355
000380 3c ac 0d bf 9b a6 9e be 87 f1 a2 bd 5c 89 b0 bc
       -0.55340934 -0.30986485 -0.07956224 -0.021549873
000390 ea dc 98 3d ae e7 9c be 1c a5 a1 be 60 ae c0 3c
       0.07464011 -0.30645508 -0.3157128 0.023520648
0003a0 02 7e 9b 3e 10 73 2c 3d 6f 77 a2 3d a0 e4 96 be
       0.30369574 0.04210192 0.079329364 -0.29471302
0003b0 e8 98 99 be b1 4b c0 be 07 e7 2e 3e f6 d9 cb be
       -0.2999947 -0.37557748 0.17080317 -0.39814728
0003c0 77 fc dc be f8 34 45 3d a8 ed 10 be 99 d0 99 3b
       -0.43161365 0.048146218 -0.14153159 0.004694056
0003d0 ef f5 1b bf f6 e9 bb 3d de de 15 3e 9e 07 87 be
       -0.6092214 0.09175484 0.14635798 -0.26373
0003e0 51 d8 28 3e 2a 7c 4e bd ea 41 c4 be 51 05 c4 3c
       0.16488768 -0.05041138 -0.38331538 0.023928316
0003f0 7f 2a 52 3e 74 18 8a 3e 53 28 8a be 3f 99 49 be
       0.20524023 0.2697178 -0.2698389 -0.19687365

sequential/lstm/while/lstm_cell/BiasAdd/ReadVariableOp f4 [256]
000000 31 83 51 bd 5c f8 f6 3c ac 86 72 bd 03 78 3e bd
       -0.051150504 0.030147724 -0.059210464 -0.04650117
000010 f9 88 3f 3b be 78 1d bd 36 5f e1 3c 8c e3 84 bd
       0.002922593 -0.038445227 0.02751122 -0.064887136
000020 e1 cf 3b bd 0a a2 85 bc 9d 31 81 bc 6d 52 4f bb
       -0.045852546 -0.016312618 -0.015770728 -0.0031634823
000030 3b d3 e2 bc c5 12 99 3b 27 14 3d 3b a6 66 90 bc
       -0.027688613 0.004671427 0.0028851123 -0.017627072
000040 4f 80 bb bc 62 44 2d bd 13 21 aa bd 2d 36 ac 3b
       -0.02288833 -0.042301543 -0.0830709 0.0052554817
000050 ea b9 c5 3c 01 56 ec bc 1e 90 c6 bc 0a ad 0c bd
       0.024136502 -0.028849604 -0.024238642 -0.03434471
000060 2e b4 0d 3b 68 54 7e bc 3b c5 1a bd 7d 21 1c bd
       0.0021622288 -0.015523054 -0.03778575 -0.038117874
000070 01 9e 03 3d 51 af bf bd 2b e7 85 bd 15 74 10 3c
       0.032133106 -0.09359611 -0.065382324 0.008816739
000080 fa 1b 32 3d c6 37 f9 bb 41 5f 44 bc db 83 73 3c
       0.04348371 -0.0076055257 -0.011985601 0.01486298
000090 14 1b 24 bd 7c cc 99 bd dd 3d b2 3b 1a 53 6f bb
       -0.040064886 -0.075097054 0.0054395036 -0.0036518038
0000a0 2b 6d 14 3d 7d 2e c5 bd 5c ea 40 bb 9b 09 99 bd
       0.036236923 -0.096280076 -0.0029436564 -0.07472535
0000b0 10 64 3d bd 89 b6 93 3c cd a2 f3 bb 93 60 2f bd
       -0.046238005 0.018031375 -0.007435179 -0.04281671
0000c0 84 f6 56 bd db 66 da bb cb ab 39 bd ce ea 74 bc
       -0.05248119 -0.0066650934 -0.04532985 -0.01494856
0000d0 ac fa 0f bd 70 32 9a bc f2 fd 84 3c fc 0d fc 3c
       -0.03515117 -0.018822879 0.016234372 0.030768387
0000e0 bc de 05 bd f6 3f c7 3c 39 e0 82 bd 22 e6 c3 3b
       -0.03268312 0.024322491 -0.06390423 0.0059783617
0000f0 0a 2f da bc 87 d9 d2 3c 75 49 04 bd 6a 2c 83 3a
       -0.026633758 0.02573849 -0.032296617 0.0010007743
000100 b8 4c 78 3f df 72 7c 3f ab 4f 78 3f 86 0c 76 3f
       0.96992064 0.9861278 0.96996564 0.9611286
000110 70 4e 7c 3f 7f 8d 78 3f 37 27 6c 3f 4b 62 75 3f
       0.98557186 0.97090906 0.9224734 0.9585311
000120 7c 61 7a 3f dd 8d 83 3f f3 ed 82 3f 8f 46 88 3f
       0.97805 1.0277668 1.0228866 1.0646533
000130 dc b6 7f 3f 9b a7 80 3f 0d d0 81 3f a7 8e 7c 3f
       0.99888396 1.0051149 1.0141617 0.9865517
000140 ec 59 81 3f 59 5e 71 3f c5 3b 72 3f fa af 89 3f
       1.0105567 0.9428459 0.9462245 1.0756829
000150 9b 44 83 3f 1b f6 7b 3f ed af 7a 3f 34 66 78 3f
       1.0255312 0.984224 0.9792469 0.9703095
000160 d4 f7 84 3f 24 4b 7c 3f 3d 3d 6f 3f 71 7e 73 3f
       1.0388131 0.98552155 0.9345282 0.9511481
000170 e3 af 89 3f b6 b1 83 3f 6d e8 7a 3f dd 94 80 3f
       1.0756801 1.0288608 0.98010904 1.004543
000180 0c 05 89 3f 4e dc 83 3f 1a fb 85 3f 2a 42 86 3f
       1.0704665 1.0301607 1.0467255 1.0488942
000190 ca 72 69 3f 53 7f 81 3f 28 a9 88 3f d2 df 84 3f
       0.9119078 1.0116981 1.0676622 1.0380805
0001a0 5f 30 87 3f 23 56 86 3f 95 ca 77 3f 38 61 75 3f
       1.0561637 1.0495037 0.9679349 0.9585147
0001b0 9b b8 76 3f 58 fc 8c 3f 51 2e 89 3f 1c 05 7b 3f
       0.96375436 1.1014509 1.071726 0.9805467
0001c0 64 85 70 3f 83 63 7e 3f e4 24 74 3f 3e d3 8d 3f
       0.9395354 0.9937059 0.9536879 1.1080091
0001d0 ee 15 7c 3f 54 8b 8c 3f d2 dc 80 3f cc d3 88 3f
       0.9847096 1.098002 1.0067389 1.0689635
0001e0 a0 d8 7b 3f be 93 82 3f 71 ee 77 3f 72 59 84 3f
       0.9837742 1.0201337 0.9684821 1.0339797
0001f0 c9 22 7f 3f 5e ee 7e 3f c8 26 7e 3f 12 ff 71 3f
       0.9966245 0.9958247 0.99277925 0.9452983
000200 6b df 93 bc a7 ba bb bd f5 a9 27 bd 6c 27 21 bd
       -0.01805087 -0.091664605 -0.040933568 -0.039344236
000210 7e 22 ef bc 2c 15 ec bc 2e 66 9c bb 89 88 72 bd
       -0.029191252 -0.02881869 -0.004772923 -0.05921224
000220 a8 24 59 bd 7c ff c8 3b 96 4e 90 bd c9 8f 04 3c
       -0.053013474 0.0061339717 -0.07046239 0.008090922
000230 b3 b6 dc bc dc 4d 29 bd c7 79 07 3d 6c 0e 97 bc
       -0.026942587 -0.041334018 0.03307512 -0.018439494
000240 eb 52 8a bc 1e c8 57 bd 60 fa 93 bd b1 af 82 bb
       -0.016885241 -0.05268108 -0.072254896 -0.003988229
000250 07 66 86 bb a8 da cd bc ad 74 e7 3b 65 d6 e6 bc
       -0.004101518 -0.025128677 0.0070634694 -0.028178403
000260 2a e9 b5 bc 5b 3e f3 bc fa 02 6e bc 38 be a6 bd
       -0.022205908 -0.02969282 -0.014527077 -0.0814175
000270 2a 52 58 3d 2a 8c 19 bd 89 90 a8 bc 8c e8 49 bc
       0.052812733 -0.037487186 -0.020576732 -0.01232351
000280 b5 49 ed 3b 61 a5 75 3b 0c ab 2f bc 06 ef 16 3c
       0.0072414526 0.0037482607 -0.010721933 0.009212261
000290 0d 68 b8 bd 4a ad 40 bd ab e7 34 3b a9 53 a7 bc
       -0.09004221 -0.04704026 0.0027603905 -0.020425634
0002a0 c9 50 04 3d c9 6c 90 bd 63 6b 50 bd 83 72 b4 bc
       0.032303605 -0.07051999 -0.050883662 -0.02202726
0002b0 fc 82 21 bd 70 56 72 3d 2c 1b 19 bc 55 c4 48 bd
       -0.039431557 0.059164464 -0.009344857 -0.04901536
0002c0 b9 99 7f bd 8c 70 f4 bb 3f 3d 28 bd d7 bf 2f 3d
       -0.06240246 -0.0074597057 -0.041074034 0.042907562
0002d0 74 94 cf bc b1 84 08 bc 6a fd 8a bd 88 c9 2f 3d
       -0.025339343 -0.008332417 -0.06786616 0.042916805
0002e0 39 de cd bc 12 03 32 bd 9d c9 5b bd fc d2 95 3c
       -0.025130378 -0.04345996 -0.05365907 0.018289082
0002f0 04 4b af bc 0e 4c 58 bd 74 33 e5 bc dc 27 ac 3b
       -0.021398075 -0.052806906 -0.027978636 0.005253775
000300 1c f7 eb 3c 39 20 85 bd d0 e9 70 bc af d7 e2 bc
       0.028804354 -0.065002866 -0.014704183 -0.027690737
000310 80 c0 07 bd 6b 95 01 bd 05 a7 a2 3b 87 ed 3c bd
       -0.033142567 -0.031636637 0.004963758 -0.04612496
000320 de e0 06 3c b1 42 54 bc 0d ab 1c 3d 26 fe 71 bc
       0.008232323 -0.012955354 0.038249064 -0.014770066
000330 66 0a 94 bc ea 38 6b 3a ae d4 fe ba f5 49 59 bc
       -0.018071365 0.00089730194 -0.0019442046 -0.013262262
000340 c9 4a 49 bb 30 5f 22 bd bd a5 0b 3d 58 03 c6 bb
       -0.0030714741 -0.03964156 0.034093607 -0.006042879
000350 38 86 44 bc c6 2b 65 bd 40 48 e7 bc 8a e3 05 bd
       -0.011994891 -0.05594995 -0.028232694 -0.0326877
000360 01 57 33 3c 5c a1 ce bc 2c 32 37 3d fe 07 d1 bc
       0.010946036 -0.025223427 0.044725582 -0.025516506
000370 09 13 20 3d 48 0e ba 3c 35 f5 4f bc 49 ce bd bc
       0.039080653 0.022711888 -0.012692739 -0.023169653
000380 fc 21 5c 3d 84 85 1d bd 5a a0 62 bc 89 d3 07 3d
       0.053743348 -0.03845741 -0.013832176 0.03316072
000390 dc 71 f3 bc d0 ec af bd c8 42 df bc 12 fe 2d bd
       -0.029717378 -0.0859009 -0.027253523 -0.04247863
0003a0 e4 50 01 3d 81 83 03 3d c8 33 94 bc a8 26 cd bd
       0.031571284 0.032107834 -0.018091097 -0.10017139
0003b0 41 77 5a bd a5 b6 5b bb d7 7b 06 bd 13 df 5f bc
       -0.053336386 -0.0033525613 -0.032832947 -0.013664025
0003c0 61 63 93 bc 08 aa d9 bb d8 e3 dc bc fd e7 a8 3c
       -0.017991723 -0.0066425838 -0.026964113 0.020618433
0003d0 c4 4e dd bc a1 2f 28 bc 8f 26 0b 3d 4e 2f f4 bb
       -0.027015097 -0.010265262 0.03397232 -0.007451928
0003e0 5a 7b 95 bc b4 f2 ca 3c a7 39 d5 bd f3 4e c0 bc
       -0.018247295 0.024773933 -0.10411387 -0.023475146
0003f0 33 7b f2 bc 4b e6 11 bd 6f 1f f3 bc ba f6 a6 3c
       -0.029599762 -0.035620015 -0.029678075 0.02038132

sequential/lstm/while/lstm_cell/MatMul_11 f4 [256, 64]
000000 fe 63 71 bd 76 d9 68 3c 55 f7 07 3d d7 f8 03 bd
       -0.05893325 0.014212003 0.03319486 -0.032219734
000010 52 ce 94 bd 0d 66 f9 3c 0c 7d 98 bc db c8 48 be
       -0.07265915 0.03044417 -0.018614314 -0.1960787
000020 c9 8e b2 bd 62 9b b1 3e 5a 86 ca be 8c 53 78 b8
       -0.0871864 0.3468886 -0.39555627 -5.9205617e-05
000030 8a 59 3b bd 41 48 12 bd 19 76 f9 bd e5 ad 89 3d
       -0.045739688 -0.035713438 -0.121807285 0.06722621
000040 b7 25 22 3e 38 8f 94 3c b4 22 5b 3d 8e fa da 3d
       0.158347 0.018134698 0.053499892 0.10692321
000050 47 ca 86 3e 16 b2 cd bc 79 fe e8 bd bf 20 ef 3c
       0.263262 -0.025109332 -0.11376662 0.02919042
000060 ca 2c 53 be d9 58 54 3d bb 0d 7c 3b 6a 3b a3 3c
       -0.20622554 0.051842544 0.0038460332 0.019925792
000070 8b 24 d7 3c bd cf 33 be 2f a1 27 3d 41 ad 01 be
       0.026262542 -0.17559715 0.0409252 -0.12663747
000080 f6 f6 6c be 75 46 2a be ce 85 56 be 52 3c 36 bd
       -0.23141083 -0.1662844 -0.2094948 -0.04449112
000090 a8 bf 1a bc b5 f8 f0 3d 4b 78 71 bc fd fd be 3c
       -0.0094451085 0.11766187 -0.014738153 0.02331447
0000a0 f1 90 59 be 84 8f a5 3c ff d6 fa bc 79 1d a1 bd
       -0.21246697 0.020210035 -0.030620096 -0.078669496
0000b0 8f d1 3e bd 98 c1 06 be ed 76 9d 3e 11 f1 5f 3d
       -0.04658657 -0.13159788 0.30754796 0.05467326
0000c0 0c 6d 2f 3e 37 e4 0b 3c 76 1b 04 bd 91 12 d9 bd
       0.17131442 0.008538297 -0.03225275 -0.105992444
0000d0 4b d3 93 3c 65 84 8f 3d 61 c0 14 3d 63 ae 8a be
       0.018045088 0.07007674 0.03631628 -0.27086172
0000e0 f5 2e 41 bd 84 97 8d 3c 5c d9 3f be b3 e9 52 bd
       -0.047163922 0.017284162 -0.1873526 -0.051492404
0000f0 29 2e 03 3d ca 6e 8b bc bc 59 30 3e 8e 39 bb 3d
       0.032026444 -0.017020602 0.17221731 0.09141837
000100 3b fb 22 bd 3f 25 77 3b e3 b6 70 bd fb e5 c9 bc
       -0.039790373 0.003771141 -0.058768164 -0.024645796
000110 e3 ce 50 3d a0 23 25 bd 4b 20 51 bc 0b 9c 1a bd
       0.050978553 -0.040317178 -0.012764047 -0.03774647
000120 7f 62 09 bc 2e 39 83 bd 03 96 78 39 03 45 59 3d
       -0.0083853 -0.064073905 0.00023707007 0.05304433
000130 93 89 df bc 79 55 e7 3d 83 b7 00 3d 04 54 da 3c
       -0.02728728 0.112955995 0.03142501 0.02665139
000140 ce e1 dc 3c 0f 7e 5a bd 9e ce 23 3c ce 88 13 be
       0.02696314 -0.053342875 0.009997992 -0.14407656
000150 34 61 e5 3a 3d 5c 08 be 3c a3 14 3d 4a 65 3a 3c
       0.0017500282 -0.13316436 0.036288485 0.011376688
000160 01 18 87 bc c9 5b 90 bb 84 c8 b7 bc 53 ce da bd
       -0.016490938 -0.004405473 -0.02243448 -0.106838845
000170 a2 2e f9 bc e0 f2 32 3d 64 fc a7 bc 4f 46 82 bc
       -0.030417744 0.043688655 -0.020506091 -0.015902666
000180 e3 27 17 bc eb f4 4b 3a 05 6b 9a bd c9 c6 29 bd
       -0.009225818 0.0007780331 -0.075399436 -0.041449342
000190 f8 ff 84 3a b7 b3 33 3c 2d 9d 9b bc bd b3 18 3e
       0.0010147085 0.01096814 -0.018995846 0.14912315
0001a0 6d 1c be bd 04 5b 4c bc d3 a2 82 3d 4a 1c 23 bc
       -0.092827655 -0.012472872 0.063787125 -0.009955475
0001b0 bd 54 e9 bc 85 45 f9 3c 62 a1 56 3e f7 fb 3a bb
       -0.02848279 0.030428657 0.2096 -0.002853153
0001c0 c9 64 1c 3d 4d 23 78 bd 82 83 6f 3d 01 7a 89 bd
       0.038182054 -0.06058054 0.058475025 -0.067127235
0001d0 31 ea 12 3d 73 09 2d 3e 43 dd c1 3a 17 c8 7e bc
       0.035867874 0.16898136 0.0014790673 -0.015550635
0001e0 ad 8f 5c bd 66 68 16 3e 88 93 52 3d 17 e0 6e bd
       -0.053847957 0.14688262 0.051410228 -0.058319177
0001f0 bd 23 73 bc 5b 02 06 be 01 a3 c3 3d 7b 29 0f 3d
       -0.014840064 -0.13086836 0.09552575 0.03495167
000200 85 0d 1c 3d c2 2e 8b bd 22 80 aa bd 35 66 73 3b
       0.03809883 -0.06796028 -0.08325221 0.0037139778
000210 b7 d1 28 3d 1e c7 46 bc 3e 4a 4f bd ce 5d dd 3c
       0.041215625 -0.012132434 -0.050607912 0.027022269
000220 f3 48 83 3e a7 ec 55 bd bf d6 81 bb e7 28 c5 bc
       0.25641593 -0.052227642 -0.0039623673 -0.024067355
000230 29 ed 38 3d ff 45 f4 3b 30 60 0d be fe 7c d5 bd
       0.04514805 0.0074546332 -0.13806224 -0.10424231
000240 dd 5b 8d bc 16 ba d6 3d 6c e9 0c bd 9d 33 2a be
       -0.017255718 0.10484712 -0.034402296 -0.16621251
000250 da 87 2c bd 99 72 91 3d 18 55 f4 3d b6 31 9b bd
       -0.042121746 0.07101936 0.11930293 -0.07577841
000260 80 f8 cd bd bc 91 3d bd 84 13 4b bd a3 7f 33 3d
       -0.10057163 -0.04628156 -0.04957916 0.043822896
000270 a7 5a 29 3d f4 f7 bd bc fe 15 b6 3d b6 93 cc bd
       0.04134622 -0.023189522 0.088909134 -0.09989111
000280 90 6c ae bd 96 3e 3f 3d 24 89 69 bc e2 11 e6 bd
       -0.085168004 0.046690546 -0.014253888 -0.112338796
000290 3f 4b 7c 3d 06 be ee bc 71 f1 d8 bd 3a 29 ce bd
       0.061595198 -0.029143345 -0.10592926 -0.10066457
0002a0 64 39 86 bd 2b 64 53 3d e1 7c 0c 3c c4 13 b2 3d
       -0.06553915 0.0516092 0.008574695 0.08695176
0002b0 1a 28 01 3c f9 e0 87 3c dd ea a1 be 72 5c 23 be
       0.007883096 0.016586768 -0.316245 -0.15953234
0002c0 9a 8e c3 bd 88 4a a9 bd fc 08 82 3d 21 7a 0d bd
       -0.095486835 -0.08266169 0.0634937 -0.0345403
0002d0 68 f1 89 bc 99 2e 95 bc 10 cf 8f 3d 97 46 a2 bc
       -0.016838744 -0.018210696 0.07021916 -0.01980905
0002e0 fd 77 c8 3c 0b 73 90 bd 41 96 cf 3c 05 39 cf bd
       0.024471277 -0.07053193 0.025340201 -0.101182975
0002f0 cb 50 98 bc d8 6c 64 3d a7 83 0f be ac 52 f5 bd
       -0.018593213 0.055767864 -0.14015065 -0.11978659
000300 46 80 29 3c 86 3f ec bc 6e db 1b bd a3 85 b3 bd
       0.010345524 -0.028838884 -0.03805106 -0.087657236
000310 73 ef 98 bc e0 74 3b 3d d1 a5 5b 3c 8e fc 28 bd
       -0.018668866 0.045765758 0.013406233 -0.04125648
000320 19 a4 04 bc 0f 4b 80 bd 93 f8 41 3c 5e 05 2c be
       -0.008095765 -0.06264316 0.01183905 -0.16798922
000330 0c dc 6e 3c c2 89 cc 3d e8 21 64 bd 5d 1f 35 3d
       0.01457883 0.09987213 -0.055696398 0.044219363
000340 6c 48 fc 3c 71 d6 1d bc 05 34 04 3c aa 58 fc 3d
       0.030796252 -0.009633646 0.008069043 0.12321599
000350 5e bd 07 3d 77 42 28 3d ce bc 0b 3d 45 e7 d0 bd
       0.03313958 0.04107901 0.034115605 -0.10200361
000360 b8 aa c9 bc 29 af 4c 3d fa 98 9f 3d cc 26 3c 3c
       -0.024617538 0.049971733 0.0779285 0.011483859
000370 27 bb fe 3c bf 16 8f 3d 27 46 a3 bd 5f d0 50 bc
       0.0310951 0.0698676 -0.07972365 -0.012744992
000380 78 02 5a 3d 80 9b 6a 3c 5e 3d 0e 3d 42 05 83 3b
       0.05322501 0.014319301 0.034726493 0.0039984295
000390 bb 95 70 3d 6a fd e5 bd 5b 43 e7 bd 6b 48 7c bc
       0.058736544 -0.112299755 -0.11292144 -0.015398125
0003a0 eb 7e d6 bb 45 e0 f5 3c c2 84 05 be 98 80 88 bb
       -0.0065458915 0.030014167 -0.13038924 -0.00416572
0003b0 c2 d3 2e bd 07 53 e6 3c 19 6f 3b 3d e8 72 da bc
       -0.042682417 0.028115762 0.045760248 -0.02666612
0003c0 f6 3d 0f be 38 a9 43 bd 7a 49 f7 3c dc 44 b3 3c
       -0.1398848 -0.0477688 0.030186404 0.02188342
0003d0 84 0b cb 3c b7 48 8d 3d 33 e3 81 3d 2d a5 17 be
       0.024785765 0.06898635 0.06342163 -0.14809103
0003e0 fa a1 98 bd b6 92 ef bd 8a d0 c1 bd 13 6e 91 bc
       -0.074527696 -0.11697905 -0.09463604 -0.017752683
0003f0 5a 87 a2 bd 0d e1 9e 3c 59 38 08 3d d4 af 1a be
       -0.079359725 0.019394422 0.033256862 -0.15106136

sequential/lstm/while/lstm_cell/MatMul f4 [256, 225]
000000 96 8d df bd 5b 10 2b 3e d2 7b 85 3d cf 2d aa 3d
       -0.10915677 0.16705458 0.065177575 0.083095185
000010 b0 bd 29 3e 9b 28 b1 bf 26 ca 87 3b 20 e8 24 3e
       0.16576266 -1.3840517 0.004143971 0.16104174
000020 48 2b 8f bf 93 f6 0f bd cf 11 87 3d 6d 5d 42 bf
       -1.1185083 -0.03514726 0.065951936 -0.75923806
000030 bc d0 cb bd 8d f6 98 bc 7b e8 34 bf 93 bc eb bc
       -0.09951922 -0.018672252 -0.7066724 -0.028776443
000040 a0 e7 61 3d 48 02 10 bf 1e bd fd 3d 6b d4 f2 bd
       0.055152535 -0.5625348 0.12389587 -0.11856922
000050 22 e7 b9 be f9 5e ef 3d 8f 1c a7 be 81 b0 5b be
       -0.36309153 0.116880365 -0.32638976 -0.2145405
000060 b7 4f ea 3d da 75 c3 be bb 0f 3e be 1b f7 67 bd
       0.11440986 -0.3817585 -0.18560688 -0.056632143
000070 f5 08 32 3d 9b 80 53 be 5e 56 20 3d ec d6 a4 be
       0.043465573 -0.20654528 0.039144866 -0.32195222
000080 6b b0 62 bd e0 f2 0e bd 06 72 e1 be f0 d4 2a be
       -0.055344027 -0.034899592 -0.44032305 -0.16682792
000090 b4 ba a9 3d 22 58 cd be ed 22 d8 be 6e 99 8a 3d
       0.08287564 -0.40106302 -0.42214146 0.06767546
0000a0 ef 49 5a 3d fc 05 ee bc 5c 70 b6 bb f0 6f 93 bd
       0.053293165 -0.029055588 -0.0055675935 -0.07199085
0000b0 1b 3e 8c bd 93 35 d5 3c 2c 81 e0 bd 95 9a f1 bc
       -0.06847783 0.026026523 -0.109621376 -0.029492656
0000c0 69 57 9a bd c0 13 06 bd c2 46 1b be fa a7 84 bd
       -0.075362034 -0.03273368 -0.1516371 -0.064773515
0000d0 ba ea 56 3d b7 10 02 3e 9e 7d ae b9 a7 c0 04 be
       0.052469946 0.12701689 -0.00033281458 -0.12964116
0000e0 50 b4 98 3e c2 10 99 bc 3d e3 ae bd 4b 28 fa 3e
       0.29825068 -0.018684749 -0.08539436 0.48858866
0000f0 00 9b 98 bd 15 83 a4 bd 9a 6d f8 3e 85 17 11 be
       -0.07451439 -0.080328144 0.4852112 -0.14169128
000100 50 41 2e be dd 67 3a bd 3f 3b a7 bd d6 a8 a6 bd
       -0.17017102 -0.045509208 -0.08165597 -0.08137672
000110 cd a9 3e 3c 0e 60 2c be e7 c9 0a be ba 97 04 be
       0.011637163 -0.16833517 -0.13553582 -0.12948504
000120 7b 14 46 be aa f9 14 bd 15 47 9e bc 7a d2 cb 3c
       -0.1934375 -0.03637091 -0.019321004 0.024880636
000130 36 76 0e bd 7d 74 af 3d 0a bb 10 be 49 ed 71 bd
       -0.034780703 0.0856714 -0.1413385 -0.059064183
000140 55 83 51 bd 16 a6 27 be 6f 26 0a be 85 cf a5 3d
       -0.05115064 -0.1637195 -0.13491224 0.08096222
000150 8c 9b e8 bd e7 bc 99 bd 4f e4 bc bd 23 e5 24 be
       -0.11357793 -0.075067334 -0.09223234 -0.16103034
000160 26 42 85 bd 72 41 20 bd 85 33 26 be 43 e1 89 bd
       -0.065067574 -0.039124914 -0.1623059 -0.067324184
000170 d0 09 ac 3c a4 f9 31 bb ce 62 f8 bd 90 76 90 3d
       0.021000773 -0.0027156854 -0.121282205 0.07053864
000180 91 7c 17 be a5 31 9c bc cd a3 ae 3d de 83 fa 3c
       -0.14793612 -0.019066641 0.08527336 0.030580457
000190 63 71 ab 3a 22 b7 85 3d 23 4f c2 bd ba 4a 8d bc
       0.0013080057 0.065290704 -0.094877504 -0.017247546
0001a0 af 6a a3 3d 56 7a 37 3c ea 3d e8 bd 0e c3 07 bd
       0.07979333 0.011198601 -0.11339934 -0.033145003
0001b0 ee bf 0d be 55 6b d0 bd fd 31 99 bd cc 00 ae 3c
       -0.13842747 -0.10176722 -0.07480238 0.021240614
0001c0 d6 ba 6e bd bd 56 c7 3c 01 20 f3 bd 6a 25 0b be
       -0.05828365 0.024333352 -0.11871339 -0.13588491
0001d0 95 cd c2 3d 45 b8 10 be e4 07 ff bc b2 f9 a1 bd
       0.09511868 -0.14132793 -0.031131692 -0.07908954
0001e0 9c aa 57 bd 79 e9 3c be 78 2c 97 bc ca db d7 bc
       -0.05265294 -0.18448438 -0.018453822 -0.02634992
0001f0 55 de 24 be 34 b9 2b 3d 51 68 8c 3b bc d8 d7 bd
       -0.16100438 0.04192467 0.0042848964 -0.10539386
000200 01 d0 08 3e 2d b3 85 bd c1 a6 77 be 73 eb 3d 3e
       0.13360597 -0.06528316 -0.24184705 0.18546848
000210 0c 02 27 be 70 fb 53 be 9d 4c 51 3e 70 5a bd bd
       -0.16309375 -0.20701385 0.20439382 -0.09245765
000220 f2 1c e4 bd 64 47 12 3e 80 6e 87 bc d9 b2 8b be
       -0.111383334 0.14285046 -0.016532183 -0.27284887
000230 24 c0 09 3d 51 1a 0e bb cd 22 85 be 5e 7d 41 3d
       0.033630505 -0.0021683166 -0.26003113 0.0472387
000240 9c f5 18 3c 2a 35 d2 bd 85 bf 3a 3d e1 90 4a 3c
       0.009335902 -0.102640465 0.045592804 0.012363643
000250 84 a9 08 be 76 1f 1d 3d 52 f7 4d 3c 22 2d 22 be
       -0.13345915 0.03836008 0.012571173 -0.1583753
000260 07 07 f6 3d d3 2b dd bd 88 ae 53 be 84 d7 37 3e
       0.12013059 -0.107993744 -0.20672047 0.17953306
000270 86 12 f7 bd 67 2a 28 be 95 03 57 3e 14 56 07 be
       -0.1206408 -0.16422425 0.2099746 -0.1321643
000280 7f f3 76 3c 61 9e 95 bd b1 0b d9 bd ea 78 10 bd
       0.015072702 -0.07305599 -0.10597933 -0.035271563
000290 89 3b c9 3d 23 94 f3 bd ca 8d db 3c 10 a0 31 bb
       0.098258086 -0.11893489 0.026801009 -0.0027103461
0002a0 cb 1f 6b 3e 79 9e b0 bd b8 0b 3f 3e dd 8a fa bd
       0.22961347 -0.08623976 0.18656814 -0.12233517
0002b0 80 c7 b6 bb 5a 82 99 bd c3 8e 34 bb 09 fa ed bd
       -0.0055779815 -0.07495566 -0.0027550913 -0.11619956
0002c0 1e c0 07 3e 88 0d ed 39 d8 5f 10 be 9d 46 f9 bd
       0.1325688 0.00045214244 -0.14099061 -0.121716715
0002d0 98 e2 68 bd 12 bc 4e 3c 75 4f 5d bc db 80 c5 bd
       -0.05685672 0.012618082 -0.013507714 -0.09643718
0002e0 11 c8 cd bd 3e b7 44 be 60 39 ce bd b9 38 4f bd
       -0.10047925 -0.19210526 -0.10069537 -0.050591204
0002f0 7f ce 2c 3d 18 99 fe 3b aa b6 50 be bb d7 4e be
       0.042189118 0.007769715 -0.20382181 -0.20199482
000300 26 97 5f 3d 8e af 0c 3c f6 fe 82 3d ec e7 7b bd
       0.054587506 0.008586777 0.06396286 -0.061500475
000310 cd 82 a7 3d b9 01 12 3e a6 76 93 bd 2b e8 7c 3d
       0.08179245 0.1425847 -0.07200365 0.06174485
000320 32 3c 82 bd 67 0a 9e bd b5 fe 5f 3d ae 2b 5e 3e
       -0.063591376 -0.07716828 0.054686267 0.2169635
000330 a4 39 3d 3d 31 3c 9a 3d 15 39 54 3d d9 65 db 3d
       0.04619755 0.07531012 0.05181225 0.10712785
000340 b0 39 55 3c d6 8e 22 3e 4f 4f 01 3e 17 ff 73 3d
       0.013014242 0.158748 0.1262791 0.059569445
000350 ed a1 d7 3d 8a 70 2b 3d e8 7b 05 3d 22 ca fc bc
       0.10528932 0.041855372 0.03258887 -0.030858103
000360 92 d4 b2 3d f2 15 d8 3c 74 82 2d bd dd a8 d5 3d
       0.08731951 0.026377652 -0.042360738 0.10432599
000370 ae c6 91 3c 48 2e 2d 3e f1 ed d0 3c a8 5b 5c bd
       0.017794933 0.16912186 0.025504084 -0.053798348
000380 3b 1c e4 3d 35 e8 1a 3d 90 43 c9 bc 27 41 ca 3d
       0.11138197 0.037819106 -0.02456835 0.09875708
000390 a7 0f 52 3d 19 79 73 bd f4 71 75 bd 31 20 af 3d
       0.05128446 -0.05944166 -0.059923127 0.08551062
0003a0 32 05 f4 3d b3 d6 1c be 4c 80 a2 3d 6e d5 15 3e
       0.119150534 -0.15316276 0.07934627 0.14632198
0003b0 79 36 4a be a3 fd 7b 3d b2 35 15 3e e7 75 e3 bd
       -0.19747342 0.061521184 0.14571264 -0.111064725
0003c0 d5 b4 8f bd b0 70 03 3e 04 2a 97 bd 63 3e b8 3d
       -0.07016913 0.12835956 -0.07381061 0.08996274
0003d0 8b 61 f1 3c f8 6d ee bd 7b be 63 bc 09 5c fe 3d
       0.029465457 -0.116420686 -0.013900395 0.12419898
0003e0 88 06 8a bd 58 19 81 bd 98 d5 35 3d e3 29 70 bd
       -0.06739527 -0.06303662 0.044393152 -0.058633696
0003f0 22 d6 a3 bd 49 1c 07 3e 22 a9 ba bd 72 e9 14 3b
       -0.07999827 0.13194384 -0.09114291 0.0022722152
